vision-like-net/snapshots/gradientEpoch199.pth (torch, 30699 bytes, 28 tensors)

e_conv1.weight f4 [8, 3, 3, 3]
0.024051871 0.067037866 0.011583689 -0.030034712 0.034451284 -0.023735864 -0.09792875 -0.070207156
-0.080057 0.012514094 0.07524082 0.025250867 0.026019651 0.039090183 -0.030455843 -0.098076336
-0.03471493 -0.10488523 0.049330693 0.10480709 0.0126610715 0.005870601 0.07984841 -0.03218381
-0.08858683 -0.050265003 -0.11218182 -0.12519802 0.004911167 -0.059411384 -0.08646261 0.06410494
0.03179231 -0.12526263 0.011634701 0.014296423 -0.092489466 0.014850754 -0.0072895796 -0.063908845
0.0656112 0.07272975 -0.11590817 0.041968416 0.004776769 -0.1573394 -0.015570031 -0.03326418
-0.11292676 0.12825084 0.09759896 -0.11016369 0.06346447 0.04678789 -0.07189582 -0.02154955
-0.06003611 -0.068960026 -0.11613782 -0.10705176 -0.1093445 -0.113986604 -0.09666949 -0.10909398
-0.069322534 -0.094855174 0.020094665 -0.025369937 -0.0039046742 -0.0313155 -0.034637168 -0.00960222
-0.13051319 -0.11227855 -0.10212148 0.20368803 0.14668714 0.17583685 0.14647582 0.1347893
0.17411193 0.012659435 0.0569502 0.025850113 0.00078262883 0.04834242 0.06505024 0.025862351
0.023596283 0.04304585 0.09732594 0.079025775 0.09761588 0.040790774 0.06863043 0.068283856
0.05585373 0.05093248 0.0742443 0.0063161296 -0.009423888 0.03589091 -0.0019611134 0.0323968
0.0031594748 -0.0065469863 0.009949856 -0.009369519 0.17996319 0.15039495 0.2258886 0.11563377
0.07386671 0.16262138 0.16929345 0.1313592 0.20802775 0.11817297 0.08928793 0.15928292
0.058758385 0.015123536 0.100251466 0.10930708 0.073537655 0.14353113 0.04682078 0.022909718
0.0824261 -0.008474953 -0.04689078 0.029670296 0.035929278 0.0019065473 0.06665134 0.09236241
0.08373477 0.115465455 0.08695168 0.059668873 0.09176462 0.10084851 0.0744181 0.09917829
0.034845483 0.048468072 0.057684906 0.04404619 0.0098071145 0.05394431 0.08773411 0.032882724
0.07208779 0.07676818 0.060564883 0.1272742 0.06878123 0.03427102 0.10001074 0.09101477
0.06655507 0.112760164 -0.06040745 -0.05627082 -0.041529648 -0.06429031 -0.06347066 -0.047829356
-0.073338136 -0.06703224 -0.04945925 -0.01292423 -0.0047592563 0.010126236 -0.014235412 -0.010490516
0.0025431376 -0.021887826 -0.014704213 -0.001670716 0.08003553 0.08532552 0.106646 0.078640826
0.07904235 0.09791809 0.072303504 0.07554146 0.09472204 0.1426435 0.08897612 0.14386004
0.07771468 0.009977943 0.07500505 0.16342446 0.0873943 0.11948993 0.11239116 0.0582173
0.11943823 0.05801567 -0.013627441 0.031372853 0.13683096 0.05948475 0.08267168 0.121047586
0.075286284 0.13257383 0.06952838 -0.0024356344 0.054233912 0.13543461 0.064494655 0.10153822
00000000: 6e08 c53c 264b 893d 83c9 3d3c 5b0b f6bc
00000010: ca1c 0d3d b771 c2bc de8e c8bd c5c8 8fbd
00000020: edf4 a3bd ea07 4d3c dc17 9a3d e8da ce3c
00000030: 2a27 d53c 071d 203d 887e f9bc 3fdc c8bd
00000040: 3e31 0ebd 11ce d6bd fb0e 4a3d 19a5 d63d
00000050: 6270 4f3c 2c5e c03b 9087 a33d 2cd3 03bd
00000060: 036d b5bd ade2 4dbd 95bf e5bd e933 00be
00000070: dbed a03b 5a59 73bd 4f13 b1bd 7349 833d
00000080: a738 023d d944 00be 799f 3e3c 8b3b 6a3c
00000090: 1e6b bdbd 9450 733c 6ddd eebb a4e2 82bd
000000a0: 2a5f 863d 56f3 943d 4361 edbd 13e7 2b3d
000000b0: 7186 9c3b 941d 21be 7119 7fbc 0540 08bd
000000c0: 2546 e7bd 3054 033e f7e1 c73d 809d e1bd
000000d0: a9f9 813d a9a4 3f3d 1e3e 93bd af88 b0bc
000000e0: 6de8 75bd ea3a 8dbd aad9 edbd f43d dbbd
000000f0: 02f0 dfbd cf71 e9bd a7fa c5bd aa6c dfbd
00000100: f9f8 8dbd 6e43 c2bd 919d a43c 9dd4 cfbc
00000110: 90e5 7fbb af44 00bd b4df 0dbd a152 1dbc
00000120: 40a5 05be 4cf2 e5bd 1125 d1bd 9893 503e
00000130: 2735 163e 930e 343e c2fd 153e 3506 0a3e
00000140: 664a 323e 8569 4f3c 9d44 693d 9ec3 d33c
00000150: 5529 4d3a b402 463d 0f39 853d 48dd d33c
00000160: fe4c c13c d850 303d d352 c73d 44d8 a13d
00000170: d6ea c73d 3a14 273d 1c8e 8c3d 68d8 8b3d
00000180: e1c6 643d 939e 503d 650d 983d 89f7 ce3b
00000190: a766 1abc 5902 133d 0686 00bb 82b2 043d
000001a0: 310f 4f3b 1a88 d6bb b904 233c 9c82 19bc
000001b0: 4548 383e 2201 1a3e 574f 673e 66d1 ec3d
000001c0: 6e47 973d 3886 263e 435b 2d3e 0783 063e
000001d0: 3a05 553e ac04 f23d 97dc b63d 101b 233e
000001e0: a2ac 703d b5c8 773c a450 cd3d 64dc df3d
000001f0: e99a 963d d3f9 123e 25c7 3f3d 29ad bb3c
00000200: 04cf a83d 87da 0abc 8c10 40bd 1f0f f33c
00000210: 942a 133d 1de5 f93a 7f80 883d 8128 bd3d
00000220: 237d ab3d 2779 ec3d b913 b23d 5967 743d
00000230: 17ef bb3d aa89 ce3d 8468 983d fd1d cb3d
00000240: 23ba 0e3d 7586 463d 0247 6c3d c769 343d
00000250: 05ae 203c b5f4 5c3d f1ad b33d 09b0 063d
00000260: c3a2 933d a338 9d3d e212 783d 2b54 023e
00000270: 2cdd 8c3d c55f 0c3d 6ed2 cc3d f465 ba3d
00000280: 064e 883d cdee e63d cd6d 77bd 3b7c 66bd
00000290: fe1a 2abd a3aa 83bd e8fc 81bd b7e8 43bd
000002a0: 4e32 96bd 3348 89bd c895 4abd 26c0 53bc
000002b0: 89f3 9bbb 83e8 253c a53b 69bc 6ae0 2bbc
000002c0: c5aa 263b 194e b3bc f0e9 70bc edfb daba
000002d0: abe9 a33d 25bf ae3d 3869 da3d 710e a13d
000002e0: f5e0 a13d 4889 c83d dc13 943d 7bb5 9a3d
000002f0: a1fd c13d 2311 123e 1d39 b63d 0c50 133e
00000300: e028 9f3d 877a 233c 3f9c 993d be58 273e
00000310: c8fb b23d 23b7 f43d 562d e63d 4375 6e3d
00000320: 089c f43d d7a1 6d3d a145 5fbc d280 003d
00000330: 6a1d 0c3e 48a6 733d c54f a93d cce7 f73d
00000340: b22f 9a3d 6fc1 073e e564 8e3d 2a9f 1fbb
00000350: 6124 5e3d 5faf 0a3e c615 843d 45f3 cf3d

e_conv1.bias f4 [8]
0.16401105 0.2870406 0.19740099 0.24524368 0.28850934 0.024509937 -0.0037183869 0.18091351
00000000: 83f2 273e fcf6 923e 7c23 4a3e 2921 7b3e
00000010: 7fb7 933e 10c9 c83c 2eb0 73bb 6441 393e

e_conv2.weight f4 [8, 8, 3, 3]
5.3691e-41 1.05519e-40 -1.5965e-40 1.93312e-40 -6.0095e-41 1.13448e-40 9.55e-41 8.4274e-41
1.5876e-40 -1.40929e-40 4.2372e-41 -7.2678e-41 -3.6856e-41 -1.04985e-40 1.59698e-40 1.05355e-40
-1.59836e-40 9.607e-41 -1.06633e-40 -1.4868e-41 8.8032e-41 -1.58669e-40 -1.551e-40 -1.09387e-40
-1.06503e-40 3.9347e-41 -1.56957e-40 7.5457e-41 1.11019e-40 -1.83265e-40 5.6356e-41 6.9298e-41
1.23054e-40 9.3544e-41 1.98249e-40 1.75929e-40 -1.47924e-40 -1.29146e-40 9.8653e-41 7.4081e-41
-1.43194e-40 1.31742e-40 -8.2483e-41 1.50089e-40 1.7963e-40 4.7825e-41 1.39411e-40 -1.1657e-40
1.31544e-40 6.417e-41 -4.4931e-41 -7.8333e-41 -1.35207e-40 5.4597e-41 1.85724e-40 -9.4726e-41
-9.0546e-41 -9.5988e-41 -7.0477e-41 -1.294e-41 2.02702e-40 -3.9913e-41 -8.7584e-41 8.5006e-41
-6.8545e-41 1.06011e-40 -1.38717e-40 -4.02e-41 -3.4721e-41 -1.13968e-40 7.758e-41 1.05382e-40
-0.08616473 0.09233722 0.015791224 -0.07859654 0.14229487 0.065357186 -0.10098358 0.0911364
0.036189843 -0.0004448065 0.31644115 -0.11100773 0.021203848 0.35914296 -0.12653516 0.017080603
0.31570727 -0.124279656 0.006273534 -0.033168145 -0.016857438 0.02629348 -0.0076298467 -0.012587698
0.005388721 -0.011311157 -0.029163957 0.0710606 0.08532511 0.099900946 0.058294784 0.08025496
0.09461304 0.068560615 0.087869704 0.103253596 0.12059358 0.104082055 0.16576679 0.11075371
0.09383506 0.1653836 0.12294686 0.11096052 0.17729622 0.073150806 0.05776928 0.1397941
0.059773006 0.042161137 0.1258587 0.07387018 0.06079008 0.13487297 -0.0053324383 0.019326093
-0.049815454 -0.006468609 0.015550379 -0.052539308 -0.010164268 0.012879752 -0.050325558 0.09959157
0.060566053 0.1671663 0.08957842 0.04357712 0.15872237 0.10723696 0.064886704 0.16972966
-0.038327925 0.019402288 -0.06571322 -0.09129808 -0.043241445 -0.1232957 -0.1502989 -0.12584312
-0.18923084 -0.16819833 -0.12327948 -0.13594809 -0.12162638 -0.066428155 -0.07839611 -0.11859566
-0.08459004 -0.08023878 -0.05239889 -0.06397209 -0.06773119 0.021462912 0.026892424 0.015213512
-0.005291042 0.005561897 -0.015571343 0.04034908 0.029546842 0.032805946 0.0356527 0.0042478717
0.011886496 0.037494246 0.018838376 0.023973547 0.10205163 0.08392912 0.10557524 0.10152959
0.04041962 0.07204867 0.09333052 0.07106813 0.11563029 0.10462341 0.07104366 0.09540454
0.07456729 0.046427447 0.081707545 0.10782007 0.07604939 0.11608007 0.040401764 0.05308469
0.0689407 0.034449648 0.042189565 0.06197493 0.04662493 0.05333366 0.06932588 0.12166154
0.09004704 0.1116191 0.09088145 0.050757132 0.08052636 0.1173929 0.08397268 0.10393449
1.1139e-41 1.06417e-40 -1.40085e-40 4.3021e-41 -1.06382e-40 -1.44611e-40 6.932e-42 -6.3679e-41
5.9227e-41 -9.9495e-41 6.7807e-41 6.2991e-41 1.2949e-40 9.0517e-41 -1.11047e-40 2.87e-42
-1.07593e-40 4.4026e-41 9.934e-42 -6.1552e-41 -1.41479e-40 9.519e-41 -5.7296e-41 -5.5917e-41
1.62212e-40 -6.2327e-41 1.26048e-40 -1.38792e-40 -1.24151e-40 -6.6077e-41 -1.47697e-40 -1.09509e-40
-1.06881e-40 1.32442e-40 -1.4415e-40 1.1953e-40 1.03833e-40 1.25086e-40 7.208e-41 -1.292e-40
00000000: ab95 0000 2526 0100 0abd 0180 e01a 0200
00000010: 85a7 0080 3f3c 0100 370a 0100 ecea 0000
00000020: 8fba 0100 da88 0180 1e76 0000 99ca 0080
00000030: bd66 0080 a824 0180 2cbd 0100 b025 0100
00000040: 8fbd 0180 ce0b 0100 4029 0180 7229 0080
00000050: 66f5 0000 4eba 0180 5bb0 0180 ed30 0180
00000060: e328 0180 af6d 0000 88b5 0180 58d2 0000
00000070: 7a35 0100 defe 0180 199d 0000 2dc1 0000
00000080: 0657 0100 c304 0100 a328 0200 6bea 0100
00000090: 5a9c 0180 0268 0180 0113 0100 82ce 0000
000000a0: 2b8f 0180 3e6f 0100 eee5 0080 63a2 0100
000000b0: bcf4 0100 5185 0000 9f84 0100 f344 0180
000000c0: b16e 0100 e1b2 0000 407d 0080 5cda 0080
000000d0: e778 0180 3298 0000 b905 0200 0f08 0180
000000e0: 68fc 0080 930b 0180 76c4 0080 1224 0080
000000f0: 0d35 0200 436f 0080 26f4 0080 f6ec 0000
00000100: 13bf 0080 8427 0100 b082 0180 1070 0080
00000110: ca60 0080 b23d 0180 43d8 0000 c325 0100
00000120: 2277 b0bd 4c1b bd3d 995c 813c 39f7 a0bd
00000130: bfb5 113e fdd9 853d 7bd0 cebd b9a5 ba3d
00000140: cd3b 143d eb34 e9b9 9304 a23e 0558 e3bd
00000150: b1b3 ad3c 96e1 b73e 6f92 01be 9fec 8b3c
00000160: 62a4 a13e 5586 febd 3892 cd3b 52db 07bd
00000170: 9c18 8abc 6d65 d73c cb03 fabb a23c 4ebc
00000180: de93 b03b 6e52 39bc 40e9 eebc 3888 913d
00000190: eebe ae3d de98 cc3d 83c6 6e3d b65c a43d
000001a0: 7bc4 c13d 8269 8c3d 08f5 b33d 9f76 d33d
000001b0: c4f9 f63d f928 d53d c5be 293e d7d2 e23d
000001c0: 992c c03d 525a 293e 90cb fb3d 453f e33d
000001d0: 248d 353e 17d0 953d 7b9f 6c3d 2f26 0f3e
000001e0: 8ad4 743d 28b1 2c3d 1ae1 003e 4049 973d
000001f0: 05ff 783d 241c 0a3e bcbb aebb c151 9e3c
00000200: 4a0b 4cbd a0f6 d3bb 04c7 7e3c 7533 57bd
00000210: 0888 26bc 9805 533c 2c22 4ebd aaf6 cb3d
00000220: 1c14 783d a42d 2b3e e474 b73d ec7d 323d
00000230: 1e88 223e 0d9f db3d 52e3 843d 9dcd 2d3e
00000240: befd 1cbd 8cf1 9e3c a794 86bd 7dfa babd
00000250: f11d 31bd 7582 fcbd f4e7 19be 05dd 00be
00000260: bbc5 41be 2f3c 2cbe f479 fcbd fa35 0bbe
00000270: 4017 f9bd 7c0b 88bd 248e a0bd 48e2 f2bd
00000280: 8b3d adbd 3b54 a4bd 38a0 56bd cd03 83bd
00000290: a6b6 8abd fdd2 af3c 804d dc3c 1842 793c
000002a0: 7a60 adbb 9340 b63b f21e 7fbc 1445 253d
000002b0: 380c f23c 875f 063d 9108 123d bb31 8b3b
000002c0: 94bf 423c 9193 193d f052 9a3c 2c64 c43c
000002d0: 7200 d13d 08e3 ab3d d537 d83d bfee cf3d
000002e0: 0b8f 253d 418e 933d 1224 bf3d 2b8c 913d
000002f0: 93cf ec3d cc44 d63d 577f 913d 7563 c33d
00000300: bcb6 983d b52a 3e3d 4956 a73d c5d0 dc3d
00000310: c8bf 9b3d 63bb ed3d 527c 253d 556f 593d
00000320: c830 8d3d 131b 0d3d f7ce 2c3d 6dd9 7d3d
00000330: c8f9 3e3d 6574 5a3d bafa 8d3d af29 f93d
00000340: 956a b83d 8e98 e43d 0e20 ba3d b6e6 4f3d
00000350: 01eb a43d b06b f03d def9 ab3d 9bdb d43d
00000360: 0d1f 0000 a628 0100 8086 0180 ed77 0000
00000370: 8d28 0180 1e93 0180 5313 0000 83b1 0080
00000380: 1aa5 0000 5a15 0180 05bd 0000 98af 0000
00000390: f768 0100 53fc 0000 8e35 0180 0008 0000
000003a0: ed2b 0180 ba7a 0000 b11b 0000 95ab 0080
000003b0: 638a 0180 5a09 0100 b89f 0080 e09b 0080
000003c0: 2ec4 0100 bead 0080 5f5f 0100 e582 0180
000003d0: 155a 0180 32b8 0080 b89b 0180 4431 0180
000003e0: f129 0180 3271 0100 d591 0180 334d 0100
000003f0: 7221 0100 b05c 0100 eec8 0000 2868 0180

e_conv2.bias f4 [8]
-1.09025e-40 0.09667245 -0.012692769 -4.1896e-41 -1.45644e-40 -7.0597e-41 0.07936082 0.095707126
00000000: eb2f 0180 35fc c53d 55f5 4fbc ca74 0080
00000010: ff95 0180 ccc4 0080 ed87 a23d 1902 c43d

e_conv3.weight f4 [8, 8, 3, 3]
3.2292e-41 7.3172e-41 -5.6486e-41 -6.048e-42 -1.56197e-40 -1.5217e-41 -1.85502e-40 -9.3235e-41
-1.07959e-40 0.13096587 0.11297801 0.16290426 0.099396124 0.07383612 0.13464811 0.13545813
0.10965359 0.15930201 0.17269191 0.13011725 0.15055735 0.15432085 0.10206754 0.12527262
0.19280826 0.14369981 0.15786634 -1.97414e-40 -1.16431e-40 -3.072e-41 -3.6358e-41 -7.903e-41
6.2928e-41 -3.5366e-41 1.97597e-40 8.5325e-41 9.3291e-41 1.08644e-40 -9.845e-41 -6.0738e-41
-1.33584e-40 -6.054e-42 -1.50394e-40 -1.8517e-41 -5.7376e-41 2.9153e-41 1.74013e-40 -3.507e-41
1.51035e-40 -6.18e-41 8.973e-41 -1.8308e-40 1.70764e-40 -2.1213e-41 0.050193347 0.0601256
0.05616882 0.020712202 0.022305086 0.02255689 0.038186345 0.030894782 0.030602321 0.10401715
0.09618962 0.09667077 0.07809839 0.06095146 0.065571584 0.109656416 0.08812256 0.08881237
1.358e-42 -8.1315e-41 -5.185e-41 1.29731e-40 1.22218e-40 1.01575e-40 9.04e-42 1.2195e-40
1.11759e-40 0.031084307 0.038450032 -0.04139104 0.061020505 0.074995175 -0.020279959 0.03188047
0.042446263 -0.04507831 -0.06397107 -0.034259856 -0.06448995 -0.033831317 -0.010072978 -0.053726856
-0.065600626 -0.046791736 -0.07337227 1.36925e-40 8.1948e-41 -4.3236e-41 8.9983e-41 1.28142e-40
-1.15133e-40 6.4824e-41 1.26223e-40 1.4241e-41 1.52964e-40 1.2139e-40 -1.38221e-40 -1.09144e-40
1.1195e-40 -1.7579e-41 6.8092e-41 -8.5455e-41 1.00235e-40 -1.1285e-41 -1.15627e-40 -4.899e-42
-1.28653e-40 -1.1409e-40 -1.05414e-40 -4.211e-42 -1.3764e-41 -1.08207e-40 0.07392987 0.068208255
0.084761545 0.09629581 0.08278411 0.085568056 0.084046006 0.07761485 0.08672334 0.04383999
0.04555016 0.02940913 0.05174309 0.05597975 0.032803476 0.033726137 0.03435546 0.043287627
1.02214e-40 -1.57053e-40 1.01772e-40 9.1355e-41 9.8678e-41 8.967e-42 9.84e-41 -1.22892e-40
-1.22255e-40 0.054654367 0.05840069 -0.0039336816 0.08327663 0.07867206 0.015348673 0.055908952
0.06876428 -0.0018321361 -0.04623015 -0.025114272 -0.06543756 -0.015680945 0.0056180027 -0.028472008
-0.034128528 -0.03745331 -0.0411491 -1.14593e-40 8.7213e-41 -4.6667e-41 9.7027e-41 1.6078e-40
2.7499e-41 -1.00975e-40 -5.6877e-41 -1.978e-40 -1.66697e-40 -6.9172e-41 8.1275e-41 -1.22726e-40
1.41876e-40 -1.7376e-40 1.57506e-40 1.30838e-40 -1.52844e-40 -1.55603e-40 6.6336e-41 -6.3242e-41
7.777e-42 1.26481e-40 -5.2389e-41 -6.5323e-41 -1.676e-41 4.6218e-41 0.09274472 0.07908735
0.107610814 0.106938034 0.07564865 0.07769738 0.08698903 0.08950362 0.093603015 0.06339515
0.023644323 0.059585042 0.06470664 0.02814482 0.057364896 0.069640085 0.06049011 0.041533582
-4.2543e-41 9.8811e-41 -1.03098e-40 -9.4064e-41 -1.41963e-40 -1.24232e-40 -7.8712e-41 -8.3908e-41
-1.457e-41 0.03412632 0.044627123 -0.020671401 0.06696397 0.08050728 0.0024587018 0.04354924
0.057606626 -0.019664412 -0.06420817 -0.074716225 -0.061047982 -0.039438084 -0.010323279 -0.041411985
-0.056831338 -0.047334228 -0.056325927 1.1746e-40 1.1111e-41 2.3989e-41 -4.417e-42 -1.53e-41
-1.678e-41 1.58696e-40 5.8036e-41 -5.7642e-41 1.96133e-40 -4.5626e-41 -1.15438e-40 -5.6157e-41
00000000: 045a 0000 f9cb 0000 769d 0080 dc10 0080
00000010: 6ab3 0180 6b2a 0080 1b05 0280 e703 0180
00000020: f22c 0180 eb1b 063e 0461 e73d 60d0 263e
00000030: 3290 cb3d 6437 973d 32e1 093e 89b5 0a3e
00000040: 1092 e03d 1120 233e 26d6 303e 753d 053e
00000050: b52b 1a3e 4906 1e3e c908 d13d 7747 003e
00000060: 876f 453e 0b26 133e b7a7 213e 4f26 0280
00000070: 9044 0180 a355 0080 5a65 0080 4edc 0080
00000080: 6baf 0000 9662 0080 d226 0200 daed 0000
00000090: 0f04 0100 db2e 0100 7012 0180 50a9 0080
000000a0: 6174 0180 e010 0080 3da3 0180 9e33 0080
000000b0: f19f 0080 4451 0000 14e5 0100 c361 0080
000000c0: 06a5 0100 46ac 0080 21fa 0000 5afe 0180
000000d0: 05dc 0100 223b 0080 8a97 4d3d 4346 763d
000000e0: 4711 663d a3ac a93c 28b9 b63c 3ac9 b83c
000000f0: 4969 1c3d 0e17 fd3c b8b1 fa3c f206 d53d
00000100: 10ff c43d 53fb c53d 0cf2 9f3d 3da8 793d
00000110: 654a 863d 8b93 e03d 9a79 b43d 43e3 b53d
00000120: c903 0000 ace2 0080 8990 0080 a369 0100
00000130: b254 0100 261b 0100 3319 0000 f253 0100
00000140: 8a37 0100 84a4 fe3c c87d 1d3d a789 29bd
00000150: a3f0 793d 1297 993d 2822 a6bc 1995 023d
00000160: 22dc 2d3d 09a4 38bd 4403 83bd 1054 0cbd
00000170: 4f13 84bd b592 0abd 2209 25bc b110 5cbd
00000180: 9f59 86bd b1a8 3fbd 3344 96bd b17d 0100
00000190: 70e4 0000 8678 0080 d6fa 0000 3565 0100
000001a0: f240 0180 b4b4 0000 dc5f 0100 b327 0000
000001b0: 67aa 0100 6352 0100 4e81 0180 4030 0180
000001c0: 1238 0100 0131 0080 d0bd 0000 37ee 0080
000001d0: 6a17 0100 751f 0080 5242 0180 a80d 0080
000001e0: a266 0180 093e 0180 da25 0180 bd0b 0080
000001f0: 5e26 0080 a32d 0180 8b68 973d c5b0 8b3d
00000200: 7697 ad3d bd36 c53d b78a a93d 4e3e af3d
00000210: 5020 ac3d 89f4 9e3d 029c b13d 9091 333d
00000220: ce92 3a3d 6aeb f03c 90f0 533d 064b 653d
00000230: f05c 063d 6b24 0a3d 50b8 0c3d 5e4e 313d
00000240: ee1c 0100 cdb5 0180 b31b 0100 a9fe 0000
00000250: 1313 0100 ff18 0000 4d12 0100 9356 0180
00000260: cc54 0180 42dd 5f3d 9035 6f3d 1de6 80bb
00000270: f08c aa3d d11e a13d 0079 7b3c c900 653d
00000280: 49d4 8c3d 4924 f0ba d35b 3dbd 72bc cdbc
00000290: 2104 86bd 5375 80bc 3917 b83b 213e e9bc
000002a0: 5bca 0bbd a468 19bd f58b 28bd 703f 0180
000002b0: 1df3 0000 1782 0080 790e 0100 30c0 0100
000002c0: a84c 0000 7a19 0180 8d9e 0080 6327 0280
000002d0: afd0 0180 d3c0 0080 90e2 0000 1c56 0180
000002e0: 7e8b 0100 5fe4 0180 10b7 0100 b96c 0100
000002f0: 11aa 0180 c2b1 0180 ebb8 0000 4bb0 0080
00000300: ae15 0000 9460 0100 0a92 0080 18b6 0080
00000310: b82e 0080 d680 0000 f2f0 bd3d 8cf8 a13d
00000320: 0f63 dc3d 5402 db3d aeed 9a3d ce1f 9f3d
00000330: 4e27 b23d ad4d b73d f0b2 bf3d 51d5 813d
00000340: bdb1 c13c 720f 743d ea84 843d f78f e63c
00000350: 74f7 6a3d 769f 8e3d 7ac4 773d 1e1f 2a3d
00000360: 9876 0080 7213 0100 651f 0180 3606 0180
00000370: bc8b 0180 4f5a 0180 6bdb 0080 e7e9 0080
00000380: 9d28 0080 0ac8 0b3d eeca 363d 1257 a9bc
00000390: 6824 893d 00e1 a43d 2c22 213b b060 323d
000003a0: edf4 6b3d 4317 a1bc 937f 83bd d204 99bd
000003b0: 730d 7abd d489 21bd f822 29bc 9d9f 29bd
000003c0: fac7 68bd 89e1 41bd 04b6 66bd 6e47 0100
000003d0: f91e 0000 df42 0000 500c 0080 a62a 0080
000003e0: c72e 0080 61ba 0100 c8a1 0000 afa0 0080
000003f0: bd22 0200 307f 0080 cb41 0180 8b9c 0080

e_conv3.bias f4 [8]
0.05282405 0.073794246 0.045291506 0.07322933 0.10302613 -1.4386e-41 1.01446e-40 0.06271644
00000000: 085e 583d 7021 973d 9683 393d 42f9 953d
00000010: 5dff d23d 1a28 0080 ca1a 0100 7a71 803d

e_conv4.weight f4 [8, 8, 3, 3]
-0.04243899 -0.029042125 -0.045871828 -0.022969203 -0.0024218038 -0.02901197 -0.06722616 -0.039594717
-0.06430609 0.057445247 0.04359549 0.085417464 0.049569752 0.040152773 0.06919238 0.042823177
0.036489304 0.08512953 0.07660839 0.038647432 0.03152121 0.05087292 0.06566858 0.09545849
0.03468841 0.039771404 0.036006268 0.081778646 0.05316694 0.04794195 0.07312305 0.019533599
0.071176976 0.03994442 0.05497761 0.032413676 0.08900201 0.058363553 0.06971868 0.048607897
0.0474491 0.054325894 0.03841227 0.03581957 0.058936533 -1.59302e-40 1.39348e-40 -6.0902e-41
-8.3145e-41 9.5881e-41 5.2975e-41 -1.09752e-40 2.2662e-41 2.1115e-41 -1.17654e-40 1.49418e-40
-6.0396e-41 9.2217e-41 -8.1851e-41 -9.2114e-41 -1.06378e-40 8.5413e-41 8.3243e-41 0.09548517
0.06116783 0.061139144 0.06997913 0.03054518 0.051559757 0.051517613 0.038325105 0.058109585
-0.13238007 -0.075539805 -0.13101351 -0.084977925 -0.022988467 -0.07872514 -0.16157268 -0.08696288
-0.13454151 0.00438425 0.060579162 0.047696672 0.040499162 0.0781873 0.058560923 -0.014863385
0.05952995 0.048284747 -0.0007750384 0.047311056 0.023033906 0.025363972 0.08211464 0.059488945
-0.044866897 0.01818142 0.014257828 0.030778155 0.049677856 0.053197846 0.048094116 0.077394284
0.06707571 -0.014285731 0.011313811 0.040879056 0.020443248 0.08939994 0.05324985 0.036011785
0.073312454 0.067334205 -0.035856366 0.03416462 0.03402389 -1.30576e-40 -6.0332e-41 8.0392e-41
-1.26675e-40 -7.193e-41 4.1272e-41 2.9206e-41 -1.07271e-40 -8.7438e-41 -7.7207e-41 1.24826e-40
5.248e-42 -6.3847e-41 1.23555e-40 4.669e-42 3.7654e-41 1.59546e-40 5.7292e-41 0.01196347
0.05928501 0.04476244 0.04228392 0.09081952 0.077005364 -0.012311124 0.0456128 0.034926753
-0.076768994 -0.05354089 -0.07254214 -0.03200511 -0.007926731 -0.04146079 -0.041646276 -0.021939725
-0.054602977 0.035052765 0.027947793 0.081663266 0.05569713 0.03187208 0.08069025 0.05441099
0.037361268 0.08980827 0.03693086 0.025395695 0.0402698 0.05658909 0.0712064 0.061932474
0.05546513 0.061685026 0.05155965 0.032256674 0.037000183 0.07505595 0.08256087 0.058879927
0.07417584 0.07713351 0.069819145 0.07208997 0.04680296 0.052947555 0.055941444 0.070097126
0.057558607 0.08520126 0.061410863 0.067504115 0.06520985 1.56468e-40 5.3176e-41 -1.22569e-40
-2.668e-41 -1.46447e-40 1.24371e-40 5.0564e-41 6.5237e-41 -9.363e-41 1.12963e-40 8.6492e-41
7.4429e-41 9.1981e-41 1.15868e-40 1.3996e-41 1.21239e-40 -7.1189e-41 5.3567e-41 0.01817912
0.066960335 0.09370181 0.05650794 0.04827969 0.09275471 0.06725315 0.06490144 0.071728274
-0.038094763 -0.019411108 -0.015403896 -0.04801393 -0.010380591 -0.00076087087 -0.06523577 -0.012502977
0.015540971 0.08438857 0.038634527 0.11538164 0.023668164 -0.020563297 0.06547492 0.024455307
-0.010326228 0.097005375 0.07264395 0.017514788 0.08888929 0.02505037 -0.0058160727 0.06108931
0.0065988516 0.037799634 0.10603717 0.08827815 0.035202857 0.08906981 0.026247516 0.0062041017
0.05989731 0.01514793 0.022445891 0.12491595 0.0865046 0.042217765 0.12126148 0.0246872
00000000: 82d4 2dbd c0e9 edbc 19e4 3bbd e929 bcbc
00000010: 20b7 1ebb 83aa edbc dead 89bd 122e 22bd
00000020: e9b2 83bd b54b 6b3d 2f91 323d 5aef ae3d
00000030: a709 4b3d 3c77 243d bcb4 8d3d 5b67 2f3d
00000040: cf75 153d 6458 ae3d dce4 9c3d c54c 1e3d
00000050: 621c 013d 1f60 503d 407d 863d be7f c33d
00000060: 6f15 0e3d 57e7 223d 4f7b 133d 907b a73d
00000070: 94c5 593d c75e 443d 8ac1 953d ed04 a03c
00000080: 3cc5 913d c39c 233d 3430 613d 34c4 043d
00000090: b046 b63d 9f0e 6f3d abc8 8e3d 1319 473d
000000a0: fd59 423d d484 5e3d 2f56 1d3d 8bb7 123d
000000b0: 6f67 713d 12bc 0180 7284 0100 c5a9 0080
000000c0: c6e7 0080 470b 0100 ac93 0000 f231 0180
000000d0: 2c3f 0000 dc3a 0000 f947 0180 84a0 0100
000000e0: 5ca8 0080 1001 0100 2be4 0080 c700 0180
000000f0: 8a28 0180 19ee 0000 0ce8 0000 bb8d c33d
00000100: 1e8b 7a3d 0a6d 7a3d 3851 8f3d e339 fa3c
00000110: 5330 533d 2204 533d c9fa 1c3d 5104 6e3d
00000120: a48e 07be 9db4 9abd 6828 06be e808 aebd
00000130: 4f52 bcbc a53a a1bd 4f73 25be 9819 b2bd
00000140: 40c5 09be c1a9 8f3b db21 783d 965d 433d
00000150: 73e2 253d aa20 a03d 94dd 6f3d 8e85 73bc
00000160: add5 733d 3ac6 453d f22b 4bba 3dc9 413d
00000170: 9ab1 bc3c 1bc8 cf3c b82b a83d aeaa 733d
00000180: 5ac6 37bd 34f1 943c aa99 693c 7822 fc3c
00000190: 027b 4b3d fce5 593d 56fe 443d e580 9e3d
000001a0: fd5e 893d b30e 6abc 905d 393c cc70 273d
000001b0: 9978 a73c 5117 b73d 841c 5a3d 1881 133d
000001c0: d724 963d 84e6 893d 20de 12bd 33f0 0b3d
000001d0: a25c 0b3d fe6b 0180 2ea8 0080 1ae0 0000
000001e0: 1e61 0180 83c8 0080 0d73 0000 6a51 0000
000001f0: 072b 0180 bef3 0080 39d7 0080 f75b 0100
00000200: a10e 0000 fbb1 0080 6c58 0100 040d 0000
00000210: f768 0000 c0bc 0100 b59f 0000 6e02 443c
00000220: d7d4 723d d258 373d e731 2d3d 96ff b93d
00000230: fdb4 9d3d 99b4 49bc 7dd4 3a3d 5b0f 0f3d
00000240: 1039 9dbd b14d 5bbd f990 94bd ca17 03bd
00000250: 1fdf 01bc cad2 29bd 4995 2abd f0ba b3bc
00000260: 5fa7 5fbd 7d93 0f3d c5f2 e43c 123f a73d
00000270: ac22 643d 4c8c 023d ee40 a53d 0fde 5e3d
00000280: 2108 193d 66ed b73d d044 173d a20a d03c
00000290: f2f1 243d f6c9 673d a9d4 913d e8ac 7d3d
000002a0: 672f 633d 70a9 7c3d 3630 533d 931f 043d
000002b0: 818d 173d efb6 993d ac15 a93d 142c 713d
000002c0: 81e9 973d 2cf8 9d3d 57fd 8e3d e8a3 933d
000002d0: 76b4 3f3d 89df 583d db22 653d 158f 8f3d
000002e0: 93c2 6b3d 007e ae3d f589 7b3d 993f 8a3d
000002f0: be8c 853d 2bb4 0100 3c94 0000 ac55 0180
00000300: 5f4a 0080 3c98 0180 b25a 0100 f48c 0000
00000310: dbb5 0000 0105 0180 e53a 0100 1bf1 0000
00000320: 7acf 0000 6800 0100 fe42 0100 0427 0000
00000330: f751 0100 72c6 0080 5395 0000 61ec 943c
00000340: 8022 893d bce6 bf3d df74 673d edc0 453d
00000350: 2ef6 bd3d 05bc 893d 0ceb 843d 46e6 923d
00000360: 4109 1cbd 0b04 9fbc 9f60 7cbc 41aa 44bd
00000370: 5b13 2abc 2e75 47ba 559a 85bd 49d9 4cbc
00000380: 8f9f 7e3c ead3 ac3d 3d3f 1e3d 364d ec3d
00000390: bde3 c13c 5c74 a8bc b717 863d 7f56 c83c
000003a0: 572f 29bc c1aa c63d 5ac6 943d 2c7b 8f3c
000003b0: 970b b63d 6f36 cd3c c194 bebb c938 7a3d
000003c0: 2e3b d83b cad3 1a3d 042a d93d 2dcb b43d
000003d0: df30 103d 3c6a b63d 0805 d73c c74b cb3b
000003e0: e256 753d 062f 783c 72e0 b73c efd3 ff3d
000003f0: 5329 b13d 89ec 2c3d f057 f83d d03c ca3c

e_conv4.bias f4 [8]
0.0015977698 0.1496225 0.017566225 0.017728312 0.2620123 -3.4105e-41 0.10801039 0.109384716
00000000: 426c d13a a436 193e 0be7 8f3c f73a 913c
00000010: 7a26 863e 125f 0080 8d34 dd3d 1805 e03d

e_conv5.weight f4 [8, 8, 3, 3]
0.03814954 -0.0064279754 0.025910527 0.03090512 0.017653825 0.016924493 0.0044893716 -0.000736427
0.015866749 0.13908945 0.14394501 0.12269097 0.12396397 0.1317076 0.11216538 0.07410922
0.0813719 0.06525526 0.040669467 0.01464343 0.042402294 0.049358543 0.034456756 0.038285602
0.045544915 0.041527845 0.052412845 0.03067061 0.008593511 0.01711607 0.04321648 0.024679588
0.02511983 0.021961998 0.016801137 0.03310313 -0.03320425 0.08501762 -0.04345625 -0.011286799
0.11118827 0.0069066575 -0.022675887 0.08345128 0.011814819 1.2524494e-19 2.7021095e-19 4.0914543e-19
1.3836235e-19 1.910679e-19 2.1308326e-19 1.8605441e-19 1.6128026e-19 1.2714775e-19 0.012560599 0.007622222
0.0013469021 0.033491023 0.047408063 0.049708042 -0.0044894554 0.024629535 0.031830106 0.0262457
0.04140617 0.01933615 0.077051945 0.08000772 0.06464373 0.03931867 0.030445911 0.024460766
0.06401158 0.05580716 0.111233175 0.016199974 0.026600234 0.08725542 -0.06261923 -0.047313243
0.0084536355 0.04029015 -0.007464166 0.04088329 0.014185437 -0.04010218 0.0023007183 -0.022741731
-0.08277529 -0.046295565 -0.05094653 -0.029201841 0.081769526 -0.02406143 -0.01074423 0.084866956
0.062928736 0.03649901 0.12507637 0.111403555 -0.0009134225 0.09915425 0.08144208 -0.00589726
0.110601336 0.054155163 -0.009313585 0.118451394 0.12933214 -0.015088163 -0.09515936 0.08692285
-0.06270891 -0.09899536 0.19364738 -0.0025116848 -0.011816625 -7.905636e-12 -1.23535834e-11 -1.4298748e-11
-9.850947e-12 -1.3251732e-11 -1.4708287e-11 -9.5352224e-12 -1.2510497e-11 -1.3147553e-11 0.074757695 0.04833238
0.0015849471 0.08491867 0.047525827 0.017097296 0.1624513 0.0810137 0.03916233 -0.1437902
-0.00050401833 0.022993272 -0.043571264 0.07329857 0.10456757 0.050400816 0.11872138 0.13389975
0.0404701 -0.0006067038 0.041273806 0.059669513 0.021112705 0.058736064 0.033568516 0.011823688
0.047356322 -0.008903073 -0.011354592 -0.022335792 0.006401644 0.0050700153 -0.004203583 -0.0014175944
-0.0075227222 -0.014938267 0.028618492 0.008698667 0.04361499 0.07191405 0.025745284 0.04645651
0.06727787 0.036242686 0.04058174 0.05387688 0.022003368 0.06278754 0.07470396 0.039045528
0.05886748 0.0581865 0.023416981 0.060969856 0.000652276 0.047628265 -0.03417732 -0.0049373945
0.056709353 -0.029660797 -0.038263243 0.017670644 -0.034126446 7.2369444e-25 1.216784e-23 5.355749e-23
3.058137e-25 2.5164564e-24 7.339977e-24 8.9796875e-26 2.1814878e-25 2.9720953e-25 0.009660511 -0.026798276
0.018334717 0.02066853 0.022796012 0.019384913 0.01426523 -0.0026257373 0.01720949 -0.0033163282
-0.030150427 0.0015442505 0.047868766 0.0047449344 0.031383347 0.04685841 0.000491082 0.03373621
0.027655853 -0.01601432 0.011696596 0.056812916 0.03407377 0.03316009 0.0679284 0.028175568
0.06551058 0.037570562 0.05507868 0.043484632 0.06566898 0.08976623 0.07971601 0.050976705
0.07063011 0.06697608 0.05491475 0.025743864 0.0152246365 0.09029303 0.028251074 0.04654275
0.06962788 0.028696641 0.0471758 0.03611036 0.01186824 0.015102103 0.04684166 0.027928244
0.05368664 0.04109013 0.03208037 0.037680145 -0.031705126 0.04372693 -0.012685434 -0.02301756
00000000: b142 1c3d c4a1 d2bb 5042 d43c bc2c fd3c
00000010: c19e 903c 3ca5 8a3c 941b 933b c80c 41ba
00000020: fcfa 813c 776d 0e3e 5266 133e 6745 fb3d
00000030: d2e0 fd3d 5bde 063e f6b6 e53d 93c6 973d
00000040: 50a6 a63d 8da4 853d 0795 263d ffea 6f3c
00000050: 07ae 2d3d 2f2c 4a3d 8722 0d3d 5dd1 1c3d
00000060: 4e8d 3a3d 1a19 2a3d daae 563d ee40 fb3c
00000070: cccb 0c3c 0037 8c3c c403 313d d92c ca3c
00000080: 1ac8 cd3c a6e9 b33c 8aa2 893c 2697 073d
00000090: 2e01 08bd b81d ae3d 2eff 31bd 44ec 38bc
000000a0: adb6 e33d 3e51 e23b c8c2 b9bc 81e8 aa3d
000000b0: f192 413c f6dc 1320 2081 9f20 4f84 f120
000000c0: 7459 2320 bb92 6120 7790 7b20 7fa7 5b20
000000d0: f867 3e20 0d1c 1620 f8ca 4d3c d5c3 f93b
000000e0: 898a b03a e22d 093d f52e 423d a99a 4b3d
000000f0: 481c 93bb e1c3 c93c 4960 023d 3901 d73c
00000100: 8499 293d d866 9e3c 69cd 9d3d 16db a33d
00000110: ef63 843d 9d0c 213d b469 f93c f261 c83c
00000120: 8118 833d 0c96 643d 38ce e33d cfb5 843c
00000130: bce8 d93c f8b2 b23d 833e 80bd 88cb 41bd
00000140: 1e81 0a3c 4907 253d f695 f4bb 3d75 273d
00000150: 096a 683c 2f42 24bd a6c7 163b de4c babc
00000160: 1786 a9bd 6ba0 3dbd 4fad 50bd b338 efbc
00000170: c876 a73d 7a1c c5bc 9108 30bc bace ad3d
00000180: c8e0 803d fc7f 153d 0514 003e 8c27 e43d
00000190: bf72 6fba 6211 cb3d 1bcb a63d cd3d c1bb
000001a0: f482 e23d ced1 5d3d 0298 18bc a596 f23d
000001b0: a56f 043e 5834 77bc e9e2 c2bd 9b04 b23d
000001c0: 876d 80bd 14be cabd 804b 463e 149b 24bb
000001d0: 849a 41bc d213 0bad 9853 59ad d68b 7bad
000001e0: b94c 2dad 7f20 69ad 1e60 81ad d3be 27ad
000001f0: 4516 5cad 514b 67ad 901a 993d 2cf8 453d
00000200: 00be cf3a d7e9 ad3d 71aa 423d a10f 8c3c
00000210: a259 263e 83ea a53d ae68 203d bd3d 13be
00000220: 1920 04ba 635c bc3c c877 32bd 901d 963d
00000230: 8627 d63d 1671 4e3d 3224 f33d 041d 093e
00000240: fac3 253d 340b 1fba b90e 293d 0568 743d
00000250: 8df4 ac3c 3a95 703d 247f 093d 24b8 413c
00000260: b4f8 413d 32de 11bc 9c08 3abc 8df9 b6bc
00000270: e2c4 d13b 5f22 a63b 36be 89bb 93ce b9ba
00000280: 2b81 f6bb a2bf 74bc 5471 ea3c db84 0e3c
00000290: a2a5 323d ac47 933d c6e7 d23c 2e49 3e3d
000002a0: fbc8 893d 3673 143d 0a39 263d 01ae 5c3d
000002b0: 6840 b43c c196 803d 64fe 983d 34ee 1f3d
000002c0: 071f 713d f854 6e3d f8d4 bf3c 87bb 793d
000002d0: 80fd 2a3a db15 433d 84fd 0bbd dec9 a1bb
000002e0: 1148 683d 33fb f2bc ebb9 1cbd 07c2 903c
000002f0: 2cc8 0bbd fbf8 5f17 3a5c 6b19 7b7e 811a
00000300: 1d4a bd16 8eb3 4218 cef9 0d19 8853 de15
00000310: 0e07 8716 bbf6 b716 1f47 1e3c 0f88 dbbc
00000320: b032 963c 0d51 a93c b4be ba3c 1ccd 9e3c
00000330: b6b8 693c 9014 2cbb ebfa 8c3c c156 59bb
00000340: 07fe f6bc 7368 ca3a 0a12 443d 657b 9b3b
00000350: d38b 003d 9bee 3f3d f5bb 003a fb2e 0a3d
00000360: 878e e23c 7730 83bc 14a3 3f3c a9b4 683d
00000370: f090 0b3d e0d2 073d 0c1e 8b3d 73d0 e63c
00000380: 692a 863d 97e3 193d 2f9a 613d f11c 323d
00000390: 757d 863d 5bd7 b73d 2642 a33d f3cc 503d
000003a0: 85a6 903d c12a 893d 4aee 603d cce4 d23c
000003b0: c170 793c 8deb b83d cc6e e73c 9ca3 3e3d
000003c0: 1099 8e3d 3815 eb3c 693b 413d 75e8 133d
000003d0: 0273 423c d06e 773c 0add 3f3d c6c9 e43c
000003e0: 86e6 5b3d 204e 283d b566 033d 7f56 1a3d
000003f0: 3cdd 01bd 021b 333d 91d6 4fbc 528f bcbc

e_conv5.bias f4 [8]
0.056566115 0.15306014 0.034710053 0.0043747583 -5.2891443e-15 0.040249597 0.0058789635 -0.045942824
00000000: dfb1 673d ccbb 1c3e 212c 0e3d 225a 8f3b
00000010: bf8f bea7 c3dc 243d 52a4 c03b 8b2e 3cbd

e_conv6.weight f4 [8, 8, 3, 3]
-7.119489e-24 -7.931207e-24 -1.0457762e-23 -5.3756804e-24 -7.875016e-24 -1.1151917e-23 -5.100922e-24 -9.889153e-24
-1.5103272e-23 -6.847803e-23 -8.103561e-23 -9.033973e-23 -8.102863e-23 -8.961577e-23 -9.403485e-23 -8.892284e-23
-9.443091e-23 -9.735904e-23 -1.450231e-23 -2.114525e-23 -3.568901e-23 -1.03893754e-23 -1.7657495e-23 -3.157944e-23
-8.387016e-24 -1.7152911e-23 -3.1396093e-23 -7.1680745e-24 -1.3835857e-23 -2.691544e-23 1.8616023e-24 -8.096935e-24
-2.0862257e-23 7.857075e-24 -7.194067e-24 -2.2205695e-23 1.8032e-41 6.1298e-41 8.96e-42 5.2409e-41
4.3238e-41 5.1585e-41 1.744e-41 4.2849e-41 7.746e-42 -5.002275e-24 -7.466064e-24 -1.17163404e-23
4.4993613e-24 -1.6221716e-24 -5.471671e-24 1.05246264e-23 -1.4783424e-24 -9.5694744e-24 2.095311e-25 7.915149e-26
1.509053e-25 8.925735e-25 1.3544821e-24 4.1969343e-25 1.5259854e-24 2.3454799e-24 6.0036313e-25 -7.370614e-24
-2.2754298e-24 3.2848182e-24 -6.870074e-24 -3.99991e-24 2.0249841e-25 -7.087738e-24 -6.129643e-24 3.5917493e-25
-0.0013759504 0.057463635 0.097720765 -0.0376426 0.04217885 0.065029755 -0.12757878 -0.041631624
-3.6932397e-05 -0.058489747 0.03916066 0.10357497 -0.12383646 -0.010358479 0.049565144 -0.19349758
-0.066339724 0.025492217 -0.019881226 0.023904113 0.043911908 -0.055601455 0.005099601 0.054138243
-0.10851236 -0.012487724 0.019342491 -0.021188684 0.056510698 0.055439103 -0.028565085 0.06752626
0.09591446 -0.1056214 -0.013640832 0.032654397 -3.529724e-07 -1.9948517e-07 -1.3823369e-07 -4.1036665e-07
-2.5016473e-07 -1.8372448e-07 -5.0769313e-07 -3.2379972e-07 -2.407503e-07 -0.034756385 0.06028961 0.06639488
-0.007704825 0.09680148 0.084933795 -0.10018845 -0.011205775 0.023415657 -0.0009366178 -0.0012645217
-0.009299358 0.0073271585 -0.0018072282 -0.0036620167 0.0049211676 -0.0012900248 -0.00613173 0.08090423
0.11884663 0.16908784 -0.0579973 0.022800913 0.08086593 -0.052839268 0.031252384 0.12046052
0.005584363 0.049440235 0.043893304 0.03506388 0.06766464 0.06277131 0.037457865 0.07876137
0.08032465 0.036014132 0.024791224 0.058688473 0.08416129 0.05250793 0.091174886 0.10333327
0.05208136 0.07274439 0.016707223 0.051469494 0.06741001 0.04280359 0.072934926 0.075633235
0.030252846 0.070527904 0.03805128 0.0040683476 0.056561522 0.039847672 0.019000726 0.053362057
0.032252792 0.017363101 0.039817918 0.051471867 1.01303435e-22 6.0396014e-25 1.29118915e-23 -1.555345e-22
9.1347436e-23 -9.4060335e-24 -7.917093e-22 7.454709e-23 8.89529e-21 0.032446887 0.059135694 0.05244965
0.026708616 0.063940965 0.05520084 0.019710625 0.05331114 0.056995254 0.016738847 -0.016932221
0.0043389522 0.010231007 -0.015096288 0.00055156194 0.009224134 -0.011281295 0.002134745 -0.04844452
-0.055668354 -0.019751567 0.0676556 0.061468337 0.09394728 -0.015274979 0.0047127353 0.008488242
0.041188296 -0.009759658 -0.001704902 0.034962375 0.010607017 0.0025389332 0.044717375 0.029782936
-0.0059824577 -0.011556903 0.012865662 -0.015493188 -0.020307267 0.017921759 -0.028446285 -0.04628897
0.011594806 -0.0323856 0.05412242 0.03143794 -0.0066995784 0.06702843 0.030197114 0.02101519
0.021765847 0.04421131 0.017498257 0.057169177 0.0053933957 0.015087347 0.11174535 0.054207865
0.025796091 0.04600558 0.06924125 0.03896885 -1.8244364e-08 -3.1387756e-08 -4.725737e-08 -1.1935431e-08
00000000: 01b6 0999 6f69 1999 5448 4a99 29f6 cf98
00000010: 3153 1899 9eb5 5799 1655 c598 b748 3f99
00000020: e411 9299 d991 a59a 9dee c39a 966d da9a
00000030: 4bea c39a 7aad d89a c15c e39a 9200 d79a
00000040: e751 e49a 5466 eb9a fb41 8c99 1a81 cc99
00000050: db94 2c9a b2f5 4899 d7c5 aa99 74b5 189a
00000060: 7e3a 2299 8de4 a599 7bd2 179a 96a6 0a99
00000070: eccf 8599 b327 029a d508 1018 159e 1c99
00000080: 72c4 c999 5afa 1719 4b27 0b99 a3c2 d699
00000090: 4432 0000 e0aa 0000 fa18 0000 1892 0000
000000a0: 8878 0000 cc8f 0000 9e30 0000 7277 0000
000000b0: 9815 0000 2284 c198 296a 1099 82a0 6299
000000c0: 840f ae18 d604 fb97 ceac d398 6d93 4b19
000000d0: 2dc3 e497 be19 3999 87b1 8116 38f8 c315
000000e0: cccf 3a16 7b1e 8a17 9098 d117 8ae3 0117
000000f0: 8222 ec17 0479 3518 abcd 3917 8391 0e99
00000100: 880d 3098 8726 7e18 f5e2 0499 31bd 9a98
00000110: 4fae 7a16 c718 0999 0b21 ed98 8a51 de16
00000120: 3c59 b4ba fd5e 6b3d d321 c83d 202f 1abd
00000130: bbc3 2c3d 522e 853d 03a4 02be ec85 2abd
00000140: dce7 1ab8 f292 6fbd ee66 203d 1d1f d43d
00000150: f89d fdbd 9cb6 29bc d204 4b3d 3b24 46be
00000160: 1fdd 87bd 0ed5 d03c f4dd a2bc 8fd2 c33c
00000170: f9dc 333d 5abe 63bd 8e1a a73b 10c0 5d3d
00000180: ba3b debd 5099 4cbc 2574 9e3c e493 adbc
00000190: c377 673d 1d14 633d 5301 eabc 354b 8a3d
000001a0: cd6e c43d 0850 d8bd cc7d 5fbc 9ec0 053d
000001b0: 2880 bdb4 1132 56b4 636d 14b4 5d50 dcb4
000001c0: 614e 86b4 cd45 45b4 6848 08b5 b2d6 adb4
000001d0: 7840 81b4 b65c 0ebd 3df2 763d 0afa 873d
000001e0: c278 fcbb db3f c63d c5f1 ad3d 9a2f cdbd
000001f0: 6d98 37bc 31d2 bf3c 5b87 75ba 4fbe a5ba
00000200: 565c 18bc a918 f03b 84e0 ecba 72fe 6fbb
00000210: bf41 a13b 0d16 a9ba aeec c8bb 1eb1 a53d
00000220: dd65 f33d 5d25 2d3e 948e 6dbd fbc8 ba3c
00000230: 099d a53d fd6d 58bd 8002 003d 01b4 f63d
00000240: 08fd b63b d881 4a3d 77c9 333d 259f 0f3d
00000250: c293 8a3d 3f8e 803d 6b6d 193d a44d a13d
00000260: 4081 a43d 8e83 133d f716 cb3c 5363 703d
00000270: c15c ac3d 8e12 573d e6b9 ba3d 65a0 d33d
00000280: 4453 553d 03fb 943d 96dd 883c add1 523d
00000290: 420e 8a3d d152 2f3d e85e 953d 99e5 9a3d
000002a0: d1d4 f73c ef70 903d a9db 1b3d c64f 853b
000002b0: 0ead 673d 5037 233d 69a7 9b3c 2c92 5a3d
000002c0: 811b 043d 103d 8e3c 1d18 233d 2ad4 523d
000002d0: caef f41a a7ea 3a17 97c0 7919 9907 3c9b
000002e0: 53dd dc1a 6cf0 3599 8a47 6f9c 6a3e b41a
000002f0: fc06 281e 07e7 043d 4538 723d 72d5 563d
00000300: 07cc da3c 7bf3 823d 471a 623d 2d78 a13c
00000310: c85c 5a3d db73 693d e81f 893c 71b5 8abc
00000320: c52d 8e3b f49f 273c 6c56 77bc b296 103a
00000330: d220 173c 2ed5 38bc 14e7 0b3b c36d 46bd
00000340: 8004 64bd 0ace a1bc 058f 8a3d 39c6 7b3d
00000350: 6e67 c03d e843 7abc 4a6d 9a3b 4412 0b3c
00000360: 0fb5 283d f9e6 1fbc 0577 dfba b534 0f3d
00000370: 0ec9 2d3c 3b64 263b 9129 373d 58fb f33c
00000380: 7e08 c4bb 2a59 3dbc 7fca 523c 24d7 7dbc
00000390: 6d5b a6bc a7d0 923c 2f08 e9bc 8199 3dbd
000003a0: 24f8 3d3c c3a6 04bd 78af 5d3d 12c5 003d
000003b0: 2388 dbbb 3446 893d f05f f73c 0c28 ac3c
000003c0: 4a4e b23c eb16 353d 8158 8f3c 3a2a 6a3d
000003d0: 15bb b03b eb30 773c bfda e43d 1109 5e3d
000003e0: 5352 d33c 5970 3c3d 5bce 8d3d cd9d 1f3d
000003f0: c8b7 9cb2 34cf 06b3 07f8 4ab3 950c 4db2

e_conv6.bias f4 [8]
8.343719e-24 0.052188247 0.16243011 -0.028172983 0.021283781 0.0084294975 -9.067286e-31 2.3487e-41
00000000: 1864 2119 58c3 553d 1454 263e 07cb e6bc
00000010: 535b ae3c e01b 0a3c 0820 938d 7941 0000

e_conv7.weight f4 [24, 8, 3, 3]
3.408082e-24 2.8674346e-24 3.4256742e-24 3.8481755e-24 3.2808376e-24 3.8196992e-24 4.2570003e-24 3.7653392e-24
4.1377273e-24 0.045281015 0.0376724 0.10163002 0.06023058 0.05587875 0.0920851 -0.012016914
0.009221494 0.025015704 -0.02613727 -0.034076884 -0.021743111 -0.029134033 0.0004774973 -0.00981305
-0.03133272 0.018962558 0.008372906 0.04604594 0.037270773 0.01794399 0.04665998 0.020996284
0.0024954553 0.05479655 0.033696607 0.01942677 0.062530294 0.015988268 -0.02918908 0.081338555
0.027373297 0.0007695136 0.0323117 -0.040667288 -0.06273904 -0.0059751053 0.00877736 0.00043687638
0.02081173 0.008292122 0.0013391592 0.030627146 0.04762875 0.047418762 -1.2963993e-36 -1.6013156e-36
2.5501761e-36 -2.270164e-36 1.4013661e-36 4.0660843e-37 -5.7628585e-37 2.3994527e-36 -1.2612947e-36 5.7726e-41
2.1108e-41 6.452e-42 2.1227e-41 4.9806e-41 5.5853e-41 -5.6049e-41 2.5586e-41 2.938e-41
3.4528876e-24 3.5927274e-24 3.3571352e-24 4.9042264e-24 4.9915217e-24 5.009939e-24 4.6699394e-24 4.6295844e-24
5.1631723e-24 -0.05017137 -0.035945255 -0.104199626 -0.061730187 -0.05459262 -0.09537564 0.010698393
-0.014047282 -0.027720869 0.033772286 0.033247393 0.022719054 0.028284097 0.003364558 0.016227357
0.026042527 -0.0052866233 -0.014391398 -0.054544527 -0.033095624 -0.0174435 -0.063132614 0.0002537743
-0.014182886 -0.050901406 -0.028453978 -0.02151548 -0.07996302 0.002685786 0.018847974 -0.07984163
-0.04082342 0.012821615 -0.0198197 0.031372793 0.06237823 0.0110724205 -0.03154928 0.004605313
-0.012171041 -0.01324929 0.000470912 -0.041219734 -0.057914637 -0.051309932 -3.3175953e-36 -1.9044876e-36
2.0315752e-36 1.2981324e-36 -3.2255435e-36 3.3320903e-36 4.479727e-36 1.4595278e-36 -5.6190894e-36 5.911e-41
-5.8905e-41 5.612e-42 -3.915e-41 6.9905e-41 -3.8216e-41 6.326e-41 -5.004e-41 -2.8179e-41
-2.0834874e-27 5.940539e-27 -4.784199e-26 2.3309615e-27 1.512642e-25 -3.0648489e-25 -4.1750926e-27 6.872124e-26
-2.6269903e-26 -0.007640851 -0.050177537 -0.043055642 -0.01817975 -0.038300827 -0.046385 0.025070949
7.112927e-05 -0.004216064 -0.05113752 -0.06574764 -0.0466615 -0.072856955 -0.062143847 -0.050064005
-0.024829669 -0.034765694 -0.050785024 -0.027678695 -0.021292778 -0.0038052152 -0.044291858 -0.030676924
-0.017672464 -0.024754833 -0.016403325 -0.023190135 -0.035664476 -0.044841222 -0.032287356 -0.027484758
-0.03363332 -0.028955357 -0.016378155 -0.015984578 -0.022909196 -0.015523087 -0.00895522 0.00025532395
-0.04020886 -0.023831336 -0.017276943 -0.025576267 -0.01877958 -0.028966641 1.8539856e-37 1.9044388e-37
-3.3789012e-37 -4.6237802e-38 9.608116e-38 4.2050563e-37 -4.081325e-38 4.284757e-37 9.009057e-37 -9.2522e-41
-1.2184e-40 1.5042e-40 1.09305e-40 -3.5e-42 -7.126e-41 6.4655e-41 7.8597e-41 6.6712e-41
6.324099e-25 6.948098e-25 1.3468051e-24 9.234714e-25 7.5092463e-25 1.2593119e-24 1.2341967e-24 8.809394e-25
1.0616221e-24 -0.035970926 -0.02569525 -0.07874052 -0.05235333 -0.038963523 -0.073577605 0.0154336495
-0.01651337 -0.019185638 0.04146141 -0.010526369 0.025042394 0.015290742 0.025200583 0.00847851
0.018286673 -0.012029978 -0.017303467 -0.024206745 -0.02903153 -0.011677126 -0.06350377 -0.011237809
-0.019189363 -0.019508773 -0.04797342 -0.0059429486 -0.047614083 0.0042589945 0.010034369 -0.08899412
00000000: 02d8 8318 65db 5d18 3c86 8418 7cde 9418
00000010: afd7 7d18 78c4 9318 4aaf a418 1daa 9118
00000020: 1112 a018 9678 393d 604e 1a3d 6623 d03d
00000030: 57b4 763d 1ee1 643d 1d97 bc3d 97e2 44bc
00000040: c015 173c bced cc3c d41d d6bc 3494 0bbd
00000050: 9c1e b2bc 7faa eebc 9a58 fa39 eac6 20bc
00000060: bd56 00bd 5e57 9b3c 832e 093c ab9a 3c3d
00000070: 3da9 183d 46ff 923c 891e 3f3d 6600 ac3c
00000080: cb8a 233b 5972 603d 7405 0a3d e424 9f3c
00000090: e20f 803d d4f9 823c f01d efbc d494 a63d
000000a0: f73d e03c 2fb9 493a 4659 043d be92 26bd
000000b0: 537d 80bd d1ca c3bb ebce 0f3c 8e0c e539
000000c0: 5c7d aa3c aedb 073c ba86 af3a c8e5 fa3c
000000d0: 5d16 433d 2d3a 423d 2792 dc83 9139 0884
000000e0: ebf1 5804 cb1f 4184 1a6e ee03 975c 0a03
000000f0: 9419 4483 741f 4c04 2299 d683 eba0 0000
00000100: d73a 0000 fc11 0000 2c3b 0000 d78a 0000
00000110: b29b 0000 3e9c 0080 5347 0000 e651 0000
00000120: be93 8518 a6fc 8a18 75df 8118 1bb9 bd18
00000130: a319 c118 08d0 c118 d7a8 b418 2f19 b318
00000140: 95bd c718 7f80 4dbd 553b 13bd 9d66 d5bd
00000150: cbd8 7cbd 839c 5fbd 4e54 c3bd 5048 2f3c
00000160: 9226 66bc e016 e3bc cf54 0a3d 6b2e 083d
00000170: 4f1d ba3c 0db4 e73c eb7f 5c3b 3cef 843c
00000180: 2357 d53c 693b adbb e6c9 6bbc 156a 5fbd
00000190: 478f 07bd ace5 8ebc ac4b 81bd 030d 8539
000001a0: 565f 68bc fe7d 50bd 5118 e9bc 3b41 b0bc
000001b0: a7c3 a3bd 0304 303b 1167 9a3c 0284 a3bd
000001c0: 7536 27bd c011 523c ec5c a2bc c280 003d
000001d0: 5180 7f3d 1969 353c d139 01bd 2ae8 963b
000001e0: 0c69 47bc 8d13 59bc bde4 f639 06d6 28bd
000001f0: e637 6dbd 5d2a 52bd 6a1d 8d84 1104 2284
00000200: cad3 2c04 a4dd dc03 0f33 8984 40bb 8d04
00000210: e88b be04 6753 f803 7702 ef84 c6a4 0000
00000220: 34a4 0080 a50f 0000 226d 0080 dec2 0000
00000230: 886a 0080 58b0 0000 7e8b 0080 8d4e 0080
00000240: 2512 2593 3954 eb13 ede6 6c95 84ad 3813
00000250: 8a41 3b16 78b4 bd96 7864 a593 4325 aa15
00000260: 0f15 0295 1b60 fabb f686 4dbd 1d5b 30bd
00000270: b3ed 94bc 54e1 1cbd 33fe 3dbd 9761 cd3c
00000280: 3c2b 9538 e826 8abb 9375 51bd b3a6 86bd
00000290: 2120 3fbd 0736 95bd 8c8a 7ebd ea0f 4dbd
000002a0: 9767 cbbc 7966 0ebd f503 50bd 6ebe e2bc
000002b0: 316e aebc eb60 79bb 616b 35bd 2c4e fbbc
000002c0: d8c5 90bc a6ca cabc 4460 86bc 3df9 bdbc
000002d0: ea14 12bd 6eab 37bd bf3f 04bd b727 e1bc
000002e0: 18c3 09bd c933 edbc 7b2b 86bc 17f2 82bc
000002f0: 11ac bbbc 8c54 7ebc eab8 12bc 00dd 8539
00000300: 0cb2 24bd ef39 c3bc 6088 8dbc 5285 d1bc
00000310: a2d7 99bc 734b edbc f859 7c02 019c 8102
00000320: c3f4 e582 17be 7b81 66c7 0202 3517 0f03
00000330: 5e35 5e81 7fcd 1103 fa47 9903 ea01 0180
00000340: a453 0180 4fa3 0100 b330 0100 c209 0080
00000350: a5c6 0080 3bb4 0000 19db 0000 f7b9 0000
00000360: adb8 4317 8108 5717 7268 d017 79e6 8e17
00000370: 6166 6817 7cde c217 92fb be17 9b51 8817
00000380: 2f47 a417 4056 13bd d87e d2bc b642 a1bd
00000390: 7270 56bd 3798 1fbd dbaf 96bd 6bdd 7c3c
000003a0: 0c47 87bc 332b 9dbc 70d3 293d cb76 2cbc
000003b0: b525 cd3c 0586 7a3c 7471 ce3c 73e9 0a3c
000003c0: efcd 953c 6319 45bc 00c0 8dbc 394d c6bc
000003d0: 88d3 edbc 6b51 3fbc 440e 82bd ca1e 38bc
000003e0: 0333 9dbc ddd0 9fbc c77f 44bd 11bd c2bb
000003f0: fc06 43bd 098f 8b3b 3267 243c 8d42 b6bd

e_conv7.bias f4 [24]
0.052324127 -0.048468623 -0.0114775235 -0.12163776 0.07911239 0.047160845 -0.044115882 0.03689249
-0.029749481 -0.03389864 0.03405712 -0.18551089 -0.01963778 0.014401813 0.019928131 0.034606382
0.013545975 -0.010284048 0.050725788 0.31054157 -0.043890737 0.26626965 0.25863937 0.10515263
00000000: d351 563d 0987 46bd 390c 3cbc 381d f9bd
00000010: ad05 a23d bb2b 413d dbb2 34bd 941c 173d
00000020: 2fb5 f3bc 4dd9 0abd 7b7f 0b3d 91f6 3dbe
00000030: 69df a0bc 95f5 6b3c 5240 a33c 6cbf 0d3d
00000040: f0ef 5d3c 6c7e 28bc d8c5 4f3d 4eff 9e3e
00000050: c6c6 33bd 7f54 883e 616c 843e 435a d73d

cond_shift1.weight f4 [3, 16, 1, 1]
-0.004384794 -0.10166985 -0.059450652 0.027498202 0.017799508 0.005924722 0.14379673 0.033202372
-0.056546383 -0.026500456 -0.33028755 0.024337135 0.05181336 -0.049464993 -0.35430437 -0.0076789185
-0.046380967 0.057072718 0.21205774 0.0960892 0.11424828 0.06345523 0.11639049 0.09920874
0.0384038 0.07316511 0.046217173 0.00841732 -0.041360427 -0.09192174 0.011890654 -0.068879545
0.07253731 -0.081800036 -0.47821712 -0.0021363918 0.027826961 0.008113218 -0.10691663 -0.04043706
0.041149825 0.05287603 0.0031459865 0.045721646 0.05004606 -0.020798841 -0.2707536 -0.045151897
00000000: 51ae 8fbb 4838 d0bd 8782 73bd e943 e13c
00000010: 46d0 913c 2c24 c23b 733f 133e 36ff 073d
00000020: 2e9d 67bd 7c17 d9bc 731b a9be ac5e c73c
00000030: 3f3a 543d ce9b 4abd 6267 b5be 709f fbbb
00000040: f8f9 3dbd 15c5 693d aa25 593e 6aca c43d
00000050: 01fb e93d d1f4 813d 235e ee3d f42d cb3d
00000060: 4e4d 1d3d 97d7 953d 384e 3d3d cde8 093c
00000070: 8d69 29bd 7741 bcbd 05d1 423c b810 8dbd
00000080: 718e 943d c786 a7bd e0d8 f4be b502 0cbb
00000090: 5ef5 e33c 4ded 043c 1bf7 dabd 55a1 25bd
000000a0: b88c 283d 8994 583d e52c 4e3b 9f46 3b3d
000000b0: 19fd 4c3d 5562 aabc 37a0 8abe 32f1 38bd

cond_shift1.bias f4 [3]
0.07276406 0.14961302 0.117069885
00000000: 5305 953d 2834 193e 56c2 ef3d

cond_shift2.weight f4 [3, 16, 1, 1]
-8.7431e-41 0.1224918 0.07523673 7.7272e-41 1.26393e-40 2.9813e-41 0.067349695 0.08686462
-3.285e-42 0.17367461 0.12262374 1.87106e-40 1.1295e-40 -1.82187e-40 0.07326369 0.10321632
-1.92924e-40 -0.11650195 -0.05042528 1.15561e-40 3.812e-41 -1.22806e-40 -0.08364855 -0.08941022
-1.14821e-40 -0.18420996 -0.11377896 -1.48278e-40 1.2128e-40 1.40383e-40 -0.08877146 -0.11487247
-1.44416e-40 0.019483672 -0.05088198 -1.0683e-40 -1.79942e-40 1.04216e-40 0.1280838 0.043591917
-1.24522e-40 0.16930273 0.04018417 9.1807e-41 1.36806e-40 1.08376e-40 0.17741905 0.18010661
00000000: b9f3 0080 fbdc fa3d b715 9a3d 67d7 0000
00000010: 5560 0100 1b53 0000 a3ee 893d 14e6 b13d
00000020: 2809 0080 c2d7 313e 2822 fb3d 9309 0200
00000030: dc3a 0100 ddfb 0180 460b 963d 1463 d33d
00000040: cb19 0280 9398 eebd bd8a 4ebd 2342 0100
00000050: 436a 0000 5556 0180 ee4f abbd b51c b7bd
00000060: 1340 0180 89a1 3cbe f204 e9bd 579d 0180
00000070: 1452 0100 5587 0100 d0cd b5bd 4242 ebbd
00000080: 9392 0180 399c 9f3c a069 50bd cc29 0180
00000090: 9bf5 0180 8322 0100 6628 033e 708d 323d
000000a0: 1e5b 0180 b25d 2d3e 2898 243d ecff 0000
000000b0: 5c7d 0100 1c2e 0100 57ad 353e de6d 383e

cond_shift2.bias f4 [3]
0.06604997 -0.077073194 0.24306788
00000000: 3545 873d 8dd8 9dbd c9e6 783e

cond_shift3.weight f4 [3, 16, 1, 1]
0.23837826 0.04042079 0.0748285 0.054715596 0.046595126 -4.362e-42 2.2086e-41 0.051170763
0.10191402 0.03241286 0.048940502 0.040880457 0.036959153 2.01661e-40 -1.92715e-40 0.03874857
-0.23996639 -0.040247913 -0.07481703 -0.054545905 -0.046402138 1.16927e-40 -5.7448e-41 -0.05099358
-0.1025485 -0.03226817 -0.048893604 -0.040757123 -0.036809884 -1.33151e-40 -1.2679e-41 -0.03862321
0.26217082 0.036690027 0.074501924 0.05137568 0.04214955 -6.8399e-41 -1.25151e-40 0.047987152
0.13552748 0.027881887 0.049830385 0.037866324 0.03251945 2.03118e-40 9.4693e-41 0.03551694
00000000: 6e19 743e 4590 253d af3f 993d 761d 603d
00000010: 88da 3e3d 290c 0080 913d 0000 6f98 513d
00000020: 4cb8 d03d 59c3 043d d675 483d 4472 273d
00000030: 7b62 173d 2632 0200 3619 0280 d2b6 1e3d
00000040: c0b9 75be ffda 24bd ac39 99bd 876b 5fbd
00000050: 2b10 3ebd f245 0100 24a0 0080 a5de 50bd
00000060: f304 d2bd a12b 04bd a944 48bd f1f0 26bd
00000070: f6c5 16bd 2c73 0180 5823 0080 5f33 1ebd
00000080: 413b 863e 4848 163d 7794 983d 4e6f 523d
00000090: 02a5 2c3d abbe 0080 df5c 0180 2d8e 443d
000000a0: b7c7 0a3e 8e68 e43c f21a 4c3d b819 1b3d
000000b0: 1d33 053d 3636 0200 f707 0100 367a 113d

cond_shift3.bias f4 [3]
0.024855455 -0.024752496 0.020568911
00000000: ab9d cb3c bfc5 cabc 2280 a83c

cond_shift4.weight f4 [3, 16, 1, 1]
0.025040742 -0.103618175 -0.022143448 -0.07633086 0.06553001 3.0361775e-09 0.028848553 0.07499936
0.05991375 -0.009236918 0.11753203 -0.041215956 -0.054303434 1.7656888e-14 0.11567502 0.09146295
-0.02441678 0.07293682 0.0056473142 0.0571877 -0.029731382 -9.5983104e-08 -0.014294497 -0.043227013
-0.05549408 0.07627353 -0.10580993 0.035556342 0.022609292 -4.13863e-12 -0.10612583 -0.07711265
-0.056167413 -0.20843993 -0.07967204 -0.0067699887 0.011306717 1.1171952e-09 0.009173823 0.06893786
0.11448153 -0.0850253 0.09868596 0.008209516 0.0016729985 -8.608678e-14 0.10181456 0.061734665
00000000: 3e22 cd3c c435 d4bd 2d66 b5bc 5b53 9cbd
00000010: 9934 863d 00a5 5031 cd53 ec3c 4499 993d
00000020: 1f68 753d 7156 17bc a2b4 f03d 10d2 28bd
00000030: 476d 5ebd 030a 9f28 06e7 ec3d ed50 bb3d
00000040: b305 c8bc e65f 953d 1b0d b93b a63d 6a3d
00000050: 3a8f f3bc 451f ceb3 7733 6abc cf0e 31bd
00000060: c34d 63bd 4c35 9c3d e0b2 d8bd 87a3 113d
00000070: 1f37 b93c 779d 91ac 8058 d9bd 3ded 9dbd
00000080: cd0f 66bd 4771 55be 182b a3bd c8d6 ddbb
00000090: cf3f 393c d08b 9930 cd4d 163c 4b2f 8d3d
000000a0: 4b75 ea3d bf21 aebd dd1b ca3d 3581 063c
000000b0: 8448 db3a a6d9 c1a9 2784 d03d 7ddd 7c3d

cond_shift4.bias f4 [3]
-0.011864303 -0.07881063 0.09700295
00000000: 7e62 42bc 7867 a1bd 7ca9 c63d
